cnn_lstm_model_SPR.tflite (tflite, 346800 bytes, 13 tensors)

arith.constant f4 [12, 128]
000000 a9 e7 ec 3d 42 a8 f8 bf 05 96 ef 3f c7 a8 4a c0
       0.11567623 -1.9426348 1.8717657 -3.1665514
000010 ec e3 f9 bf b1 d9 9f be 21 fc 24 40 6b ff 84 3f
       -1.9522681 -0.31220773 2.5778887 1.0390447
000020 0f 23 15 c0 d4 56 39 40 99 22 26 c0 b5 1a 0d 3e
       -2.3302648 2.8959246 -2.5958617 0.13779719
000030 62 b9 31 c0 70 bc e3 3f ac 45 8f c0 e0 5d 58 c0
       -2.7769399 1.7791882 -4.477255 -3.3807297
000040 b6 97 9e bf 61 e7 20 40 f5 07 48 c0 cd 01 5b 40
       -1.2390049 2.5141222 -3.1254857 3.421985
000050 58 d3 0d 40 80 00 24 40 4e 04 ff bf 28 70 04 3d
       2.2160244 2.5625305 -1.9923189 0.032333523
000060 e3 67 30 c0 40 cf 3c c0 84 c0 7b bf fd b6 fd be
       -2.7563407 -2.9501495 -0.9834063 -0.4955367
000070 59 f8 d8 bf 21 de 92 c0 f1 1c 05 c0 8c 6d 9e c0
       -1.695079 -4.5896153 -2.0798914 -4.9508724
000080 9a 5b 07 be 37 45 85 c0 91 b0 a2 c0 07 60 cd 3f
       -0.13218537 -4.164699 -5.0840535 1.604493
000090 88 55 81 c0 5b 64 63 c0 29 f8 c8 bf 67 73 5a bf
       -4.041691 -3.5530002 -1.5700732 -0.8533234
0000a0 05 5b 22 bf dc 7f 69 c0 9f 65 c5 3e 3d 2a dd bf
       -0.63420135 -3.648429 0.38554093 -1.7278515
0000b0 4f 18 80 c0 71 77 b3 bf 07 1b 7b c0 6c 05 c9 bf
       -4.0029674 -1.4020826 -3.9235246 -1.570478
0000c0 f0 9a 6e c0 ba 87 1d bf 6b fe 8a c0 7a f8 29 c0
       -3.7282066 -0.6153523 -4.343557 -2.6557908
0000d0 f4 7d b0 c0 4f c6 06 40 f0 fb 4a 40 ed 8e 83 c0
       -5.515375 2.1058538 3.171627 -4.111197
0000e0 6f 5d de bf 93 ac 07 40 a0 c3 e2 3f 3c 80 2a 40
       -1.7372264 2.119908 1.771595 2.6640768
0000f0 13 08 de 3e 59 c0 33 be 9e aa db 3f 8d 64 03 bf
       0.43365535 -0.17553844 1.7161443 -0.51325303
000100 5f 36 80 40 2d f6 94 bf 3b 97 84 c0 2f e3 33 bf
       4.006637 -1.1637627 -4.1434608 -0.7026853
000110 32 a0 0e 40 63 b3 de bf ef 44 f7 bc 6c 7b 98 c0
       2.2285275 -1.7398494 -0.030184237 -4.765066
000120 a4 df 3a 40 95 03 17 40 e7 e2 50 40 2b 46 ee bf
       2.9199 2.3595936 3.263849 -1.8615164
000130 1f 69 d4 bf 43 5d d6 bf b9 dd 2a c0 b2 c0 0e c0
       -1.659458 -1.6747211 -2.6697829 -2.2305112
000140 46 2e 13 40 f4 e7 b0 c0 48 c1 17 40 35 e1 5d c0
       2.2996993 -5.5283146 2.371172 -3.4668705
000150 cb 1f 40 40 ed a4 55 c0 6f 26 23 40 ba 4c 39 c0
       3.0019405 -3.3381913 2.5492208 -2.895308
000160 e9 5f 86 bf 6f 23 34 3f d1 0a 07 c0 c3 da 97 c0
       -1.049802 0.7036657 -2.1100352 -4.7454543
000170 c8 62 5b bf 90 cc 02 c0 a6 c1 ea be d3 06 dd bf
       -0.85697603 -2.0437355 -0.45850867 -1.7267708
000180 9e 18 a0 bf d7 0b 5a 40 a7 1a 97 c0 19 bf e0 3e
       -1.2507513 3.4069726 -4.7220035 0.43895796
000190 03 13 af 3f 68 5d 19 c0 02 e9 8c c0 f2 d9 9a 3f
       1.3677677 -2.396326 -4.4034433 1.2097762
0001a0 97 b0 13 40 cd 60 1f c0 ca 17 37 40 01 67 78 40
       2.3076532 -2.4902833 2.860827 3.8812869
0001b0 33 90 41 40 a4 a6 7d 3e 6f 85 53 c0 8d 21 c1 bf
       3.0244262 0.247706 -3.3050191 -1.5088364
0001c0 f4 7a 36 c0 4a 5a 46 c0 6a ba 3e 40 38 7f 96 bf
       -2.8512545 -3.0992608 2.9801278 -1.1757574
0001d0 bf 56 af c0 ca 0e 5e 3f ce 38 29 bf d1 83 86 c0
       -5.479339 0.86741316 -0.661023 -4.203591
0001e0 b0 9f 98 c0 f9 99 0a c0 0b 74 13 c0 1e fb c3 3c
       -4.769493 -2.1656477 -2.3039577 0.023923453
0001f0 49 7f 94 c0 c9 8e 3c c0 a0 42 53 c0 56 54 41 40
       -4.6405377 -2.946215 -3.3009415 3.0207725
000200 94 fe 54 bf 5f f4 ea 3f 3f 2d 59 bf 49 57 26 3f
       -0.83200955 1.8355826 -0.84834665 0.64976937
000210 ad c6 42 bf f3 75 82 bf 04 eb f7 3d 7c 50 3b 3e
       -0.76084405 -1.0192245 0.121053725 0.18292421
000220 c3 ca 2b 3e f6 88 5c bf 28 ed 04 be ad 9c 7b bf
       0.16776566 -0.86146486 -0.12981093 -0.98285943
000230 aa 3e ac bf 54 fa 00 3f 3f e4 90 3f d8 f8 88 3f
       -1.3456624 0.5038197 1.1319655 1.0700941
000240 45 45 18 40 da 3d 2c be db 8f ce 3e ac 97 f8 be
       2.3792279 -0.1682047 0.40344128 -0.48553216
000250 03 a0 86 bf 8a b6 f8 be d7 b7 6a bf 8e cb 5f bf
       -1.0517582 -0.48576766 -0.9168677 -0.87419975
000260 92 a3 d2 3e c0 0d 19 bf 21 c7 13 3f 4a f8 dd be
       0.4114042 -0.59786606 0.5772572 -0.43353492
000270 4e 34 89 bf a5 6e 2f 3e 77 a0 83 bf 2e 06 24 3d
       -1.0719087 0.17132051 -1.0283345 0.040044956
000280 df 01 6b bf 9c 20 cb be e7 98 ba 3f 06 52 82 bf
       -0.9179973 -0.39673316 1.4577912 -1.0181282
000290 51 2c 73 3f 2f 26 b1 3d 6a 2f da be b5 61 32 bf
       0.94989496 0.08649861 -0.426143 -0.6968034
0002a0 4f 18 02 bf 7a f0 07 3f 06 e0 85 bf 56 99 f3 be
       -0.5081834 0.53101313 -1.0458992 -0.47577924
0002b0 24 54 7a 3f aa 6e 14 bf b4 6b ad 3e 3d 8f 6f bf
       0.9778464 -0.5798136 0.33871233 -0.9357794
0002c0 55 5a 2b be 73 bf ee be b5 45 7d 3d f6 18 23 3f
       -0.16733678 -0.4663044 0.061834056 0.6370996
0002d0 01 11 dd 3f fb b9 b8 3f e8 0a d0 bd 6f cb 99 3e
       1.7270814 1.4431757 -0.1015833 0.3003802
0002e0 ee 79 2e 3e 6d 4f 20 bf 99 56 e2 bf 27 3a 9e bf
       0.170387 -0.62621194 -1.7682678 -1.2361497
0002f0 cb d5 eb 3e a8 d1 19 40 b0 3b ab bd f4 a2 66 bf
       0.4606155 2.4034214 -0.08360994 -0.90092397
000300 52 68 d3 bd dd 58 5f bf 94 c8 ec 3d 92 0c b6 bf
       -0.10322632 -0.8724497 0.11561695 -1.4222586
000310 ef e6 5b 40 bd 49 71 bf e1 91 a0 bf 77 9a 6a 3f
       3.43597 -0.9425314 -1.2544519 0.91641945
000320 6b 42 30 bf 3d 58 0b 40 98 8f 1b bf c6 69 16 3f
       -0.68851346 2.1772606 -0.6076598 0.5875515
000330 37 a9 7a bf ae 0b e2 3f 01 29 a0 bf a8 5b 3a bf
       -0.9791445 1.7659814 -1.2512513 -0.72796106
000340 5e fb 62 bf 0f 5b 06 40 5e 66 34 bf 04 a8 39 3f
       -0.88664806 2.0993078 -0.704687 0.72521996
000350 9b 3c 12 bf e1 62 f5 3f 91 84 0a bf e7 21 ad 3e
       -0.57123727 1.91708 -0.5410853 0.33814928
000360 8b 20 d9 3f 18 39 4d bf fd a8 24 3e 9b 95 0a 3f
       1.6963056 -0.80165243 0.16080089 0.5413453
000370 60 48 af be 69 ec 88 bf a9 ec 5d bf b4 4c 0d 40
       -0.34234905 -1.0697147 -0.8668924 2.2078066
000380 9c 90 8a bf 90 a7 a1 be 8d ea 08 3f 8c 77 48 bf
       -1.0825381 -0.31573153 0.53482896 -0.78307414
000390 4f e7 24 3f 04 ba 7a bf 30 34 e2 3f 49 13 3e bf
       0.6441545 -0.9794009 1.7672176 -0.74248177
0003a0 f7 78 e3 be e7 97 bd 3e 1d 0d 05 bf bb 5a f9 be
       -0.44428226 0.37029955 -0.51973134 -0.48702034
0003b0 37 71 34 bf 46 00 30 3f aa 25 97 3f 7a 40 3a bf
       -0.7048525 0.6875042 1.1808369 -0.72754633
0003c0 ad 58 de bf 89 91 09 3f 44 03 1f bf 7b ad 3d bf
       -1.7370812 0.53737694 -0.6211436 -0.74092835
0003d0 bb 76 1c 40 8d 7c 62 3e e3 df 27 40 46 21 53 3f
       2.4447467 0.22117825 2.62304 0.82472646
0003e0 c7 9b bc 3f 60 7e 53 3f 97 71 bb be 7e 4c 24 bf
       1.473504 0.8261471 -0.366101 -0.6417922
0003f0 72 d8 3d bd bb ad 52 3f b4 07 de 3d 21 4c 89 bf
       -0.046348996 0.8229634 0.10841313 -1.0726358

arith.constant1 f4 [12]
000000 47 53 38 c1 4b 69 f4 41 91 18 1f c1 21 36 1a c1
       -11.520331 30.551413 -9.943498 -9.638215
000010 29 76 81 c1 2d a6 3d c1 eb c1 07 c1 e6 37 93 bf
       -16.182695 -11.85307 -8.484843 -1.1501434
000020 2b db a4 c0 14 fa ff c0 26 a3 7e c0 63 9f 71 c1
       -5.151754 -7.999277 -3.9787078 -15.101413

arith.constant2 f4 [128, 64]
000000 9c e8 6b 3c 16 03 0e bd 94 cd 74 bd 74 a2 00 bd
       0.01439872 -0.03467091 -0.059766367 -0.031404927
000010 c3 f4 a6 3d a7 03 34 3d e9 70 d7 bc 5d 47 22 be
       0.08152153 0.043948796 -0.026298957 -0.15847535
000020 8e 77 52 b1 50 7c c6 bd 86 e0 3e 3d 33 80 34 3c
       -3.062698e-09 -0.096916795 0.04660084 0.011016893
000030 49 cc 65 3d 99 ed e5 bc c2 60 bc 3b a9 82 91 3d
       0.056103025 -0.028067397 0.005748839 0.071049996
000040 bd 8b 22 bc 8e d9 98 bc cf ee d9 3c 95 d9 5d bc
       -0.0099210115 -0.018658426 0.02660313 -0.013540645
000050 0f 67 24 3d be c8 c2 3c af a3 76 bd d3 da f9 3b
       0.040137347 0.023777362 -0.060214695 0.007624963
000060 81 7f fb bb 3b 31 dc 3c 7d cd b4 3c c4 c4 44 3c
       -0.0076751118 0.026878944 0.02207064 0.012009803
000070 dc 77 ee bc ce 47 95 3c 08 cb d0 3c a6 cf 7c 3b
       -0.029109888 0.018222716 0.025487438 0.0038575917
000080 cd 5d 3b bd 58 3a 2c 3a 1c 01 a9 3c f3 61 80 3c
       -0.045743752 0.0006569973 0.020630412 0.015671706
000090 30 87 3d bd 35 67 c2 bd 3d 17 ba bb 01 75 29 3d
       -0.046271503 -0.094923414 -0.0056790398 0.04137135
0000a0 f9 8c b4 bd b7 25 d5 3d b2 ae 2f bb 69 5d d7 31
       -0.08815951 0.10407584 -0.0026807007 6.267943e-09
0000b0 4e 17 7d 3c 6b 1d dd 3c b7 d2 18 bd 12 51 c0 3d
       0.015447451 0.026991567 -0.03731033 0.09390463
0000c0 4d 3a 05 bc 75 c8 a0 3d 6d 88 d8 3b 5d f6 d4 3d
       -0.008131576 0.07850734 0.00660806 0.103985526
0000d0 0c ec 7f bc 70 c0 f5 bc bd 41 34 3a 1e 94 60 3c
       -0.015620243 -0.029998988 0.0006876251 0.013707189
0000e0 3f 3e 1e bc 54 91 9a bd 2b c6 b0 3d 19 bf 1b 3d
       -0.009658395 -0.075472504 0.086315475 0.03802404
0000f0 63 4b c5 3c dd 13 05 bb a5 1c fd 3c ee 5f 1d be
       0.024083799 -0.002030603 0.030897448 -0.15368626
000100 ab 4c c9 3b 31 8f 3d bd ed 19 a7 bb 60 dd a5 bb
       0.0061431727 -0.046279136 -0.005099526 -0.0050617903
000110 09 05 3c ba 9a 2b 38 3b d8 7a 64 3d 9d f9 ee bd
       -0.0007172381 0.002810216 0.055781215 -0.11668704
000120 03 11 88 b1 47 5b 40 3d f1 d9 05 3c 93 f6 a1 bb
       -3.960055e-09 0.04696205 0.008169637 -0.004942724
000130 03 86 04 3e c0 8f 4e bd 0c a5 95 3c 21 af 37 bd
       0.12941746 -0.05043006 0.018267177 -0.04484475
000140 a1 38 96 bc 33 45 a9 3d cd 36 02 bd a4 d8 8a bb
       -0.01833755 0.08265152 -0.031790543 -0.0042372514
000150 26 fd b0 bc cc 67 a3 3d 71 af 04 bd ae 2f cc bd
       -0.021605086 0.07978782 -0.032393876 -0.09970032
000160 5a 12 fb 3b d5 bd 01 bd b0 12 36 3e 1e 56 be bd
       0.0076621 -0.03167518 0.17780566 -0.09293769
000170 64 ff b7 3c 51 7c 7c 3c 67 87 36 3e 6d 8f 49 3c
       0.022460647 0.015410499 0.1782509 0.012302262
000180 17 24 f3 bd d2 9b 14 bc 90 9f 7f bc 65 ca 7e 3d
       -0.11872118 -0.009070354 -0.0156020075 0.062204737
000190 1d 5e 13 3d 3d 04 cf 3c 15 df 22 3e ff 50 bd 3b
       0.035978425 0.025270576 0.15905412 0.0057774778
0001a0 86 c6 ce 3d 97 cf 5e bd 8a f7 76 bb f1 ba 17 31
       0.10096459 -0.05439719 -0.0037684166 2.2079656e-09
0001b0 97 b3 f6 3c 0e b2 e0 3d 5c 25 11 3d 37 6d e9 3d
       0.030114932 0.10971461 0.03543602 0.11397784
0001c0 a2 88 79 3c f7 c6 52 3d 96 90 b3 bc e1 b5 37 bd
       0.01523033 0.05145928 -0.02191953 -0.044851188
0001d0 9b 1b 30 bc ba 18 33 be 2b 88 40 3c 3e 09 a7 bc
       -0.010748769 -0.17489901 0.011751215 -0.02039015
0001e0 1f eb 7d bc 22 9a 54 b9 7a 9f 14 3e 19 3f 76 bd
       -0.015497952 -0.00020275314 0.1451396 -0.06011877
0001f0 71 be ac 3b a6 0b 24 3b 40 f5 13 bd 64 32 e1 bd
       0.005271726 0.0025031357 -0.03612256 -0.109959394
000200 f6 ff 2f bc 21 cd ad 3d 60 75 9b bd 98 2d db 3b
       -0.010742178 0.08486391 -0.07590747 0.006688785
000210 e0 7f 93 3c 5c 5d 94 bc 4d 4e cd bb 98 a7 75 3d
       0.018005311 -0.018110923 -0.0062654377 0.059974283
000220 ac 4f cd 31 4d 3a 1f bd 79 be 09 bc 0c c8 1d bc
       5.975343e-09 -0.03887396 -0.008407229 -0.009630214
000230 5c 27 07 be a3 ed 8e bd b6 24 72 bb 15 e3 50 ba
       -0.13198608 -0.06978919 -0.003694815 -0.0007968408
000240 11 02 27 3c 36 bd 3f 3d 50 a4 47 bc c7 45 02 bd
       0.010193364 0.046811305 -0.012185171 -0.031804826
000250 14 9f 0d bd 4a 5e 1f 3c 6e 3f 8b 39 db ed 01 3e
       -0.034575537 0.00972707 0.00026559405 0.12688391
000260 7f 4c cd 39 b5 1e f9 bc ef af fc bd af ef a8 3b
       0.0003915764 -0.03041015 -0.12338244 0.0051555256
000270 cb ea 0a 3c 99 25 c2 bd ca 32 4c bd 13 d2 dd bb
       0.008478831 -0.094798274 -0.049853124 -0.0067694276
000280 db be 35 3d d5 21 e7 bc a9 77 be 3d ac fd 9f bc
       0.044371467 -0.028214375 0.09300167 -0.01953014
000290 40 05 f4 3b ce c8 c8 bb 0e b3 2c 3e 3c 93 98 3c
       0.007446915 -0.0061274534 0.16865179 0.018624894
0002a0 f6 10 85 3d de c8 3b bc ae 0d 85 3b f1 8f cc b1
       0.06497376 -0.011461465 0.0040604686 -5.9535457e-09
0002b0 91 bd b8 3b fc 53 0e ba 55 2a a0 bd 7b af 64 bc
       0.0056378325 -0.0005429385 -0.07820574 -0.013957853
0002c0 74 60 c4 3b d5 81 02 be d2 a4 90 3c 4b 71 01 3a
       0.0059929434 -0.1274484 0.017656717 0.00049378414
0002d0 81 b6 7c 3c 85 89 77 3d 53 0d 0b 3b 3b 3f ef 3b
       0.015424372 0.060433883 0.0021217659 0.007301239
0002e0 f1 03 1f 3c 8a 85 f8 bc 65 90 64 bd ca 2c 44 3d
       0.00970553 -0.030337114 -0.055801768 0.047894277
0002f0 cf ca cd 3b 57 aa 4b bb 09 97 79 3c 5e 90 00 3e
       0.00628028 -0.0031076872 0.0152337635 0.12555072
000300 4b f3 c6 bb 7f dd 4e 3c 06 ad a2 bd 0e 46 a1 bb
       -0.0060714833 0.012626051 -0.07943158 -0.0049216812
000310 6a e2 bd 3d 5b 45 42 3d ea 44 be bc ae 1f d2 bd
       0.09271701 0.047429424 -0.02322622 -0.10259949
000320 c3 d4 57 b0 c9 15 c2 3d 65 b6 8b bd ec 24 e1 bc
       -7.8518897e-10 0.094768114 -0.06821898 -0.027483426
000330 5a 0c 7b 3d e9 c8 e2 3b 78 94 b1 3b 5e 2a 7b be
       0.061291076 0.006920923 0.00541931 -0.2452788
000340 9f bd 00 bd c9 08 81 3d 8a 8b ed b9 4b cd 87 bc
       -0.031430837 0.06300504 -0.00045308127 -0.016577384
000350 a5 04 11 3e 94 b9 04 3d 05 be 5d 3d 31 bf ef bd
       0.14161928 0.032403544 0.054136295 -0.11706389
000360 ed f3 62 bb 58 9e ab 3b a6 89 c1 3d cd 75 95 bc
       -0.0034630254 0.005237382 0.094500825 -0.018244648
000370 f4 d1 57 3e 9e 7f 45 3d 9c eb 5b 3e 96 58 bc 3b
       0.21076185 0.04821741 0.21476597 0.005747865
000380 40 bd a3 3d 7c ef a8 bc 93 e0 0f bb f0 93 cc ba
       0.07995081 -0.020622008 -0.0021953925 -0.0015608054
000390 2c ed 32 bd a9 bd c1 bc 5e 63 c8 bd 7a ae 56 bc
       -0.043683216 -0.023650007 -0.09784578 -0.013103122
0003a0 b2 9d b0 bd 07 ad 36 be 32 0b 0a 3c bf 83 58 b1
       -0.08623828 -0.17839442 0.008425521 -3.1507026e-09
0003b0 d0 f6 db b9 51 68 60 3c 68 98 d0 3d 13 30 2a 3e
       -0.00041954825 0.013696746 0.10185319 0.16619901
0003c0 41 d8 96 bc 4c 9b 4a 3d 7a a5 02 bd a6 a4 42 3d
       -0.018413665 0.04946451 -0.031896092 0.047520302
0003d0 71 02 0c 3d 52 d3 c1 bc 2c af 49 3c cb 14 09 bc
       0.034182016 -0.023660336 0.012309831 -0.008366774
0003e0 d2 a0 dc 3c f4 5f 8d 3c 35 48 a2 bd 90 a6 77 bc
       0.026932154 0.017257668 -0.07923929 -0.015115395
0003f0 67 68 c7 3c 17 b2 35 3c f5 64 00 3d 90 db 6a bd
       0.024341775 0.011089823 0.03134628 -0.057338297

arith.constant3 f4 [128]
000000 31 db 4c 3f 89 82 60 bd 26 b1 de 3e fa a1 10 3e
       0.8002196 -0.054811988 0.4349453 0.14124289
000010 9e 64 01 3f 82 34 3f 3f 01 a9 c6 3e 34 f9 0c 3e
       0.50544155 0.74689496 0.38800815 0.13766938
000020 b5 ae 78 3d fd a2 1a 3f 51 e5 0b 3e db be 40 3f
       0.06071349 0.6040495 0.13661696 0.7529122
000030 85 6c 22 3f 3d 45 ec bc 7e b8 ce bd 7b c3 d2 bd
       0.6344684 -0.02884161 -0.10093783 -0.10291191
000040 eb 42 cc bd 5c 90 dd 3e b1 99 bb 3c f6 f6 c0 3e
       -0.09973701 0.432742 0.022900434 0.37688416
000050 96 a2 22 3f 43 6d f2 3e 11 c3 d7 3e d4 64 6f 3f
       0.63529336 0.47348985 0.4214101 0.93513227
000060 1a b0 09 3f e2 5e 85 3d 9a 6a fd bc 8c 24 5b 3f
       0.53784335 0.06512238 -0.03093462 0.8560264
000070 61 67 c9 3e 1b 6d b0 3d 35 8d 2c 3f c4 e1 5c bd
       0.39336684 0.0861456 0.67402965 -0.053926244
000080 30 58 13 3f 94 30 90 3d 99 a6 b0 bd 36 a6 dc 3e
       0.5755644 0.070405155 -0.08625526 0.4309556
000090 19 a2 02 3e ed f3 53 3d 9b 3b 3c 3f 56 0f 32 3f
       0.12757148 0.051746298 0.7352845 0.6955465
0000a0 b4 4e 16 3f 68 9f be 3b 22 03 4e 3f 26 97 00 3f
       0.5871384 0.0058173425 0.8047353 0.50230634
0000b0 f4 52 2c bd 23 c6 48 3f 89 c2 f4 3c ee 69 14 3f
       -0.042071298 0.7842733 0.029877918 0.57974136
0000c0 4d 35 31 3e 57 68 ec 3e 2e a6 96 3e b8 27 5d 3d
       0.17305489 0.46173355 0.2942366 0.053992957
0000d0 33 7a 4c bd 9d 01 c3 3c cc 29 cd 3e 41 5f b4 3d
       -0.049921226 0.02380448 0.4007095 0.08807231
0000e0 7e f7 78 3d 0a b3 1d 3f fd a1 04 3f 73 ba 32 3f
       0.060782902 0.61601317 0.51809675 0.6981575
0000f0 b6 99 31 bd fe d9 1a bd af 15 cb 3e e2 6f 14 3f
       -0.04335948 -0.03780555 0.3966498 0.5798322
000100 f0 cd 3c 3f c6 40 aa 3e 61 48 ae 3b 26 c9 30 3f
       0.73751736 0.33252543 0.005318687 0.6905693
000110 3a af c9 bd 66 51 08 3f e2 48 58 3f b6 7c 93 3b
       -0.09847875 0.53249204 0.8448621 0.0045009507
000120 5e 5d 1a 3f 49 db 8e bd ec 12 17 3f 0f 19 9b 3d
       0.6029872 -0.06975419 0.5901325 0.07573139
000130 e3 da e2 3e 10 86 d3 bd 04 7c 2b 3f 3c bf 08 3f
       0.44307622 -0.10328305 0.6698611 0.534168
000140 1e 20 c3 3e 33 12 5d bd 26 77 52 3e a1 b6 6b 3c
       0.3811044 -0.053972434 0.20553264 0.014386804
000150 48 22 36 3f 94 ec 75 bd 06 64 fd 3e ea 83 8a bc
       0.7114606 -0.06004007 0.49490374 -0.016908605
000160 ae a3 10 bd 93 49 31 3f 35 a4 33 3d 66 f3 f1 3c
       -0.035312347 0.6925289 0.043857772 0.029535007
000170 17 5d 19 3f 69 76 12 3f 67 62 26 3f 97 b6 06 be
       0.5990767 0.5721193 0.649939 -0.1315559
000180 d3 00 24 3f b9 fb 55 3f 5b 48 d0 bb 15 78 dc 3e
       0.6406376 0.83587223 -0.0063562817 0.43060365
000190 b1 46 6c 3c 0d ce 3e 3f 8f 6f 26 bd bc 0b 38 3f
       0.014421151 0.7453316 -0.040633734 0.71892905
0001a0 12 b9 12 3f 29 e3 c1 3d b9 75 48 3f 40 14 19 3f
       0.57313645 0.094671555 0.7830463 0.59796524
0001b0 7b e9 4d 3f 75 89 aa bc 1e 3e 2a bc da 2e 17 3f
       0.8043439 -0.020817498 -0.010390786 0.59055865
0001c0 e7 1f 32 3f 56 3e af 3d e7 37 1f 3f b3 b0 07 3f
       0.6957993 0.085568115 0.62194675 0.53003997
0001d0 ca c4 8b bd ac 9c ff 3e f9 9a d2 bd 50 b6 14 bc
       -0.06824644 0.4992422 -0.10283465 -0.00907667
0001e0 6e d7 c0 bd 2d f5 51 3e 68 36 f0 3d 4d 47 c3 3e
       -0.0941609 0.20503683 0.11729127 0.38140336
0001f0 c7 d4 b0 3e f3 89 6f 3d a2 88 7a 3e 8d 97 26 3f
       0.34537336 0.058481168 0.24466184 0.65075

arith.constant7 f4 [64, 1, 3, 39]
000000 df 1a 6c bd 4f 15 08 bd bf b8 8f 3d 93 87 0a 3e
       -0.057642814 -0.033223446 0.070176594 0.1352828
000010 6a b6 c4 bc 09 6c 02 3e a0 73 dd be 76 d9 d6 be
       -0.024012763 0.12736525 -0.43252277 -0.41962785
000020 d0 d2 fb bd 85 c0 85 be f4 1e 63 3c 68 af 60 3e
       -0.12296069 -0.26123443 0.01386236 0.21941912
000030 8b 72 5a 3e 4b 3d 86 bc 66 c6 a2 3e f8 16 76 3e
       0.21332757 -0.016386649 0.3179199 0.240322
000040 34 b5 32 bf d2 99 a5 3c c3 5c 23 3e 3a 8f ff 3e
       -0.69807744 0.020214949 0.15953355 0.4991396
000050 d7 7d 59 3e 1e fc 66 bd 60 cd 12 3d a0 4f 38 3d
       0.2123941 -0.05639278 0.035840392 0.04499781
000060 e2 39 72 3e 37 78 85 3d b7 b7 b1 3e 46 d1 2f 3f
       0.23654893 0.0651707 0.34710476 0.686787
000070 e3 47 77 be 85 4c 5b 3e ad 4c 92 be 70 9a 94 bf
       -0.24148516 0.21415909 -0.28574124 -1.160963
000080 32 92 6c 3e dd f6 c7 3f b7 1c 8b 3f 3d 06 45 3f
       0.23102644 1.5622212 1.0868138 0.76962644
000090 92 db 10 3f ec e5 9e 3d 47 8b 12 be c1 f4 52 bd
       0.5658504 0.07758698 -0.14310943 -0.051502947
0000a0 f1 c2 97 3d ef a4 45 3d 12 18 2b be 01 a4 77 bd
       0.07410229 0.048252996 -0.16708401 -0.06045914
0000b0 20 0c e4 bc 39 b9 bc be d7 0b 87 be 3f a4 f1 bd
       -0.027837813 -0.36860064 -0.2637622 -0.117989056
0000c0 c1 d8 12 be 90 cc 38 3e 21 10 e8 3e 52 70 52 3e
       -0.14340498 0.18046784 0.45324805 0.2055066
0000d0 b5 05 4d 3c d2 76 f4 3e 08 ef cd bb d8 1d 02 bf
       0.012513568 0.47746903 -0.0062845983 -0.5082679
0000e0 d9 a6 00 3a 8a d5 c6 3d df 2b 34 3f 55 ad 46 3f
       0.0004907675 0.09708698 0.7037944 0.77608234
0000f0 51 02 f1 3d 79 79 f2 3e 36 98 7d 3d 6e e8 16 3e
       0.1176802 0.473583 0.061912738 0.14737102
000100 c3 fb 0f 3e c2 15 d0 3e f2 e2 f2 3e 20 5d 6c 3c
       0.14060883 0.406416 0.4743877 0.0144265
000110 33 09 b9 3e e3 10 91 be f9 5e 0d bd c2 47 eb 3e
       0.3613983 -0.28333196 -0.0345144 0.45953184
000120 3a a1 68 3f 75 0b 09 3f de f6 19 3f dd af 84 bd
       0.9087101 0.5353311 0.60142314 -0.06478856
000130 d3 52 06 3d 06 1a 71 be c1 44 00 3d e1 21 8a 3d
       0.03279383 -0.23545083 0.03131557 0.06744743
000140 98 b1 b2 3d 7a 52 54 be 5c 12 a1 bd 30 68 9d bb
       0.087252796 -0.20734587 -0.0786483 -0.00480368
000150 cc d6 2f be 35 08 31 be 77 84 ce bc cd 69 dd bd
       -0.17171782 -0.17288287 -0.025209649 -0.108111955
000160 2d 7c 81 3e a6 41 d0 3e 0b 3b 2e 3e 59 8e 0e 3e
       0.2529005 0.40675086 0.1701471 0.13921489
000170 9d 92 05 3f 7a 12 55 bd 6b 58 cb be bd 66 0e be
       0.5217684 -0.052019574 -0.39715895 -0.13906379
000180 1e 13 d4 bb 98 cb 46 3f e8 05 8f 3f 9b d6 10 3f
       -0.0064720055 0.7765441 1.1173677 0.5657746
000190 f1 f2 24 3f 55 cd 60 3e ce d5 37 be b6 86 2c be
       0.644332 0.21953328 -0.17952654 -0.16848263
0001a0 24 df 0f 3f 21 59 78 3e 4c ff cf 3d 7e c7 ea 3e
       0.5619986 0.2425275 0.10156116 0.45855325
0001b0 35 8b f1 be 1c c6 5f 3e 44 49 e4 3e e9 51 1c 3f
       -0.4717652 0.21852916 0.44587147 0.61062485
0001c0 6e ad 06 3f 92 e5 4d 3e 3d df c8 be e8 3b 26 3c
       0.5260838 0.20107105 -0.39232817 0.010146119
0001d0 17 c1 92 be 8a 9c 45 3e 7f 51 0c 3c bf 59 bc 3d
       -0.2866294 0.19297996 0.008564352 0.09196805
0001e0 d1 84 91 be 52 45 a3 3d 69 c2 8c bd 4c d8 2d 3e
       -0.28421643 0.07972206 -0.06873018 0.16977042
0001f0 fd 1e d5 3d 3a 5a 48 bd e7 9a 18 bd 99 6f cb bc
       0.10406301 -0.04891417 -0.0372571 -0.024833487
000200 03 5a b9 3d d8 0a 6c 3e 59 de b6 3d 5f ad b3 3d
       0.090503715 0.23051012 0.08929128 0.08773302
000210 de af 00 3e a0 72 4c 3e 05 1d 25 3d ae 69 10 3c
       0.12567088 0.19965601 0.04031088 0.0088142585
000220 03 18 94 be 50 8c 04 bd 52 0c 82 3d 29 e6 d0 bd
       -0.2892457 -0.032360375 0.06350006 -0.102001496
000230 16 ae 66 3d 61 ee 29 be 7e 5d 87 bb 5a ee 33 3e
       0.056318365 -0.1659484 -0.004131018 0.17571393
000240 a1 27 b0 3d d7 a9 10 3d d0 b9 73 3e 09 70 fb 3d
       0.086013086 0.035318222 0.2380135 0.122772284
000250 bf a8 18 ba 60 f3 df bd 27 28 6d be d5 ab 3e 3e
       -0.0005823485 -0.10935092 -0.23159848 0.18620236
000260 40 a6 75 bd 36 d1 20 bd f2 cb 25 3d d0 63 39 be
       -0.059973 -0.03926202 0.0404777 -0.18104482
000270 95 a7 e3 3d 84 fa f8 bd 31 03 19 bb 8b b4 8f be
       0.11115948 -0.12157157 -0.002334785 -0.2806743
000280 76 4b d8 bd 64 02 7c 3d ee 6e c2 3c e1 21 61 3e
       -0.10561268 0.061525717 0.023734536 0.2198558
000290 44 c0 bd 3d bb 8f a5 3d b0 3d 5c bc 5b 61 1c 3e
       0.092651874 0.08084055 -0.013442442 0.15271513
0002a0 12 77 57 3e 79 0f 2e 3d b9 fc 1d bd 23 d2 c0 3d
       0.21041515 0.042495225 -0.038571093 0.094150804
0002b0 8a 6d 9b 3e e8 59 83 be b0 b4 ed bd 48 bb c3 bd
       0.3035701 -0.2565453 -0.11606729 -0.095572054
0002c0 0a b5 ea bd 3e 80 bd 3d b7 d9 29 be 68 a5 1f bd
       -0.11460312 0.09252976 -0.16586958 -0.038976103
0002d0 ee 1e 31 3e 20 a3 90 3d ed e6 26 3e 87 38 3a bd
       0.17296955 0.070623636 0.16299029 -0.045464065
0002e0 e8 d6 f6 3c e0 e5 41 3e 80 cb d0 bd 81 d6 1d be
       0.030131772 0.18935347 -0.101950645 -0.15413858
0002f0 9a 25 d6 3d 59 89 b1 be 9e dc 1a 3e 63 87 62 bd
       0.10456391 -0.346751 0.15123221 -0.055304896
000300 4c a8 af be 93 ae d0 bd b5 f7 16 be 25 5f 5b 3e
       -0.34308088 -0.101895474 -0.1474293 0.21423014
000310 2b ef 51 bd 7b 49 f5 3d 43 af 48 3d 16 48 62 3e
       -0.05125348 0.11976906 0.048995268 0.22097811
000320 46 11 82 3d 70 9c f6 bd 04 6c bf 3d 4d ad 5e 3e
       0.06350951 -0.12041557 0.09346774 0.21745797
000330 13 8e de bd 7e a5 42 bd 73 ab 75 bc d6 90 8e 3e
       -0.10866942 -0.047521107 -0.01499449 0.27844876
000340 be 03 bc bd ed e6 36 3e 23 44 2a 3e 87 50 46 3e
       -0.09180401 0.17861529 0.16627555 0.19366656
000350 35 75 88 be 88 90 f6 3c d3 19 a0 bd 0e 49 26 be
       -0.26651922 0.030098215 -0.078174256 -0.16238806
000360 5e af 01 be c2 73 e6 bd 7a 25 98 3d 68 ac 0b bc
       -0.12664554 -0.11252548 0.07429023 -0.008524992
000370 54 48 d8 3d 5d f4 94 3e 16 e1 8a 3d 99 c2 d1 3d
       0.105606705 0.29092684 0.06781213 0.10242195
000380 9d 51 27 3e 16 39 a4 bc 55 d6 fe 3d 4b 3d f8 bd
       0.16339727 -0.020046752 0.12443224 -0.12121066
000390 b1 52 cb bd 60 e9 eb 3d b1 f8 39 3e 75 d2 b0 bd
       -0.099278815 0.11519122 0.18161274 -0.086338915
0003a0 79 fb 44 bd f5 df ba bd 88 16 69 3d 1d 82 eb bc
       -0.048091386 -0.09124748 0.056906253 -0.028748566
0003b0 f1 a8 0e 3d 14 77 21 3c c6 f0 2a 3c 3e be 95 bd
       0.034829084 0.009855051 0.010433381 -0.073116764
0003c0 fb 9f 27 bc fd ba 76 3e 47 c2 3c 3e 32 db db 3e
       -0.010231013 0.24094768 0.18433486 0.4294067
0003d0 15 9b 93 3e 6f fe 5b be 31 88 a1 be 8b 2b ae 3d
       0.28829256 -0.21483777 -0.31549218 0.08504399
0003e0 0e 3f d5 3d c5 bb b0 be 5b 70 0f bf 92 c2 65 bf
       0.10412417 -0.34518257 -0.56030816 -0.89750016
0003f0 22 dc 24 3d d7 c2 1b 3f 19 2f 87 3e 99 38 07 3f
       0.040248998 0.60844177 0.2640312 0.52820736

arith.constant8 f4 [64]
000000 00 00 00 00 00 00 00 00 00 00 00 00 00 00 00 00
       0.0 0.0 0.0 0.0
000010 00 00 00 00 00 00 00 00 00 00 00 00 00 00 00 00
       0.0 0.0 0.0 0.0
000020 00 00 00 00 00 00 00 00 00 00 00 00 00 00 00 00
       0.0 0.0 0.0 0.0
000030 00 00 00 00 00 00 00 00 00 00 00 00 00 00 00 00
       0.0 0.0 0.0 0.0
000040 00 00 00 00 00 00 00 00 00 00 00 00 00 00 00 00
       0.0 0.0 0.0 0.0
000050 00 00 00 00 00 00 00 00 00 00 00 00 00 00 00 00
       0.0 0.0 0.0 0.0
000060 00 00 00 00 00 00 00 00 00 00 00 00 00 00 00 00
       0.0 0.0 0.0 0.0
000070 00 00 00 00 00 00 00 00 00 00 00 00 00 00 00 00
       0.0 0.0 0.0 0.0
000080 00 00 00 00 00 00 00 00 00 00 00 00 00 00 00 00
       0.0 0.0 0.0 0.0
000090 00 00 00 00 00 00 00 00 00 00 00 00 00 00 00 00
       0.0 0.0 0.0 0.0
0000a0 00 00 00 00 00 00 00 00 00 00 00 00 00 00 00 00
       0.0 0.0 0.0 0.0
0000b0 00 00 00 00 00 00 00 00 00 00 00 00 00 00 00 00
       0.0 0.0 0.0 0.0
0000c0 00 00 00 00 00 00 00 00 00 00 00 00 00 00 00 00
       0.0 0.0 0.0 0.0
0000d0 00 00 00 00 00 00 00 00 00 00 00 00 00 00 00 00
       0.0 0.0 0.0 0.0
0000e0 00 00 00 00 00 00 00 00 00 00 00 00 00 00 00 00
       0.0 0.0 0.0 0.0
0000f0 00 00 00 00 00 00 00 00 00 00 00 00 00 00 00 00
       0.0 0.0 0.0 0.0

arith.constant9 f4 [33280]
000000 6f 91 7d 3a c5 39 3d 3a 5a 11 98 39 06 59 a8 35
       0.00096728554 0.0007218386 0.00029004627 1.2542885e-06
000010 7d da 6c 3a e9 50 bb ba 59 9d dc ae ba 88 b1 3a
       0.0009035243 -0.0014291081 -1.0032392e-10 0.0013544776
000020 e8 25 7e b8 c0 73 a0 ba cc fe 48 b4 5c 39 ac 39
       -6.0593622e-05 -0.0012241527 -1.8719146e-07 0.00032849133
000030 51 76 cf 3a 5d 4d 42 b7 e9 d1 92 39 da 9c 96 36
       0.0015828108 -1.1581314e-05 0.00028003685 4.4886083e-06
000040 66 81 f0 b4 91 86 10 36 fe c5 15 bb e9 5b 60 ba
       -4.4797633e-07 2.1536e-06 -0.0022853608 -0.00085586176
000050 c2 7f 1c ba 9a 9f 25 3a 35 2b 4d 39 c9 e1 34 ba
       -0.0005969965 0.0006318033 0.0001956642 -0.00069000997
000060 ab 94 af ba d6 f8 d9 3a 22 6d 66 35 6d 19 b8 b9
       -0.0013395747 0.0016629945 8.5840486e-07 -0.00035114159
000070 03 38 e4 b9 24 77 e4 b9 5f 79 25 35 e1 d9 97 38
       -0.0004352928 -0.00043576316 6.164391e-07 7.240824e-05
000080 c5 1f f3 39 3f 50 85 3a 3f 10 05 3b c2 af 31 3a
       0.00046372242 0.001017101 0.0020303873 0.0006778204
000090 7e 0b 36 b9 00 76 9f b7 fd 75 00 3a af 1c b8 3a
       -0.00017361154 -1.9009225e-05 0.0004900394 0.0014046634
0000a0 9c a0 7a b5 04 85 c8 36 ef 3f bf b6 2b b3 8a 39
       -9.3365975e-07 5.9759495e-06 -5.6996864e-06 0.00026454902
0000b0 32 a9 de b5 32 2c 89 37 3f ae 02 bb 0c 17 89 3a
       -1.6589531e-06 1.6352253e-05 -0.0019940285 0.0010459139
0000c0 91 b9 77 b6 50 ca 03 ba d6 cf eb ba 30 89 41 31
       -3.6913882e-06 -0.00050274003 -0.0017991017 2.8163178e-09
0000d0 ce 80 41 35 02 47 09 ba 28 26 e6 3a 7f f1 97 3a
       7.208554e-07 -0.0005236716 0.0017558979 0.0011592357
0000e0 35 0d aa 39 cd 04 90 b9 72 d5 05 38 6b 00 1e 37
       0.00032434767 -0.00027469397 3.1908457e-05 9.417631e-06
0000f0 40 85 3e 39 ea 49 72 38 b6 ce 68 b9 9b 68 b8 b9
       0.00018169452 5.7766134e-05 -0.0002220225 -0.00035173152
000100 c3 32 9c b9 8d 40 38 ba 22 5c 7d 3a 90 94 3d b6
       -0.0002979246 -0.0007028662 0.0009664913 -2.824967e-06
000110 0d 6c 86 ba 0b 00 bf 3a ec 15 c0 2f 86 60 6b ba
       -0.001025559 0.0014572156 3.4940173e-10 -0.00089789217
000120 c8 e7 97 39 cd 21 17 bb 68 32 ee b4 df 89 b0 b8
       0.00028973655 -0.0023060918 -4.436763e-07 -8.4180145e-05
000130 58 0c 89 3a f1 ef 85 37 8a 82 00 3a 73 26 11 37
       0.0010455949 1.5966567e-05 0.00049022643 8.651626e-06
000140 25 9f 85 35 69 16 9f b4 8e a6 60 3b 6f 03 1a b9
       9.955589e-07 -2.9632363e-07 0.0034278962 -0.00014687864
000150 0e 49 d3 3a f5 fa b6 3a b9 f7 76 3a de 63 de b8
       0.0016119794 0.0013960289 0.0009421069 -0.000106043866
000160 0f c2 05 3b 80 90 76 3a 73 69 f1 35 5e cb 39 39
       0.0020409857 0.00094056875 1.7986589e-06 0.00017718735
000170 dd 9f b1 b9 c5 e0 34 ba e4 3b c5 32 db e7 ab 3a
       -0.00033879178 -0.00068999483 2.2961054e-08 0.0013115363
000180 0e 8a 41 3b d8 08 8b 3a f8 e5 96 3a f6 b0 91 b9
       0.002953175 0.0010607494 0.0011512628 -0.000277884
000190 25 de 8b b9 77 63 ca 3a fe 5c 4a b8 ab 07 07 39
       -0.00026677657 0.001544102 -4.824716e-05 0.0001287746
0001a0 16 86 09 b5 e9 d3 a5 3a 99 f4 67 36 ce f3 46 b9
       -5.12316e-07 0.0012651655 3.4564057e-06 -0.00018973576
0001b0 3b 86 ad 35 65 f0 2d 3a fa 6a ee b9 de 87 36 b9
       1.2928571e-06 0.0006635248 -0.000454746 -0.00017407487
0001c0 56 27 d8 36 58 6c b7 ba 53 ed 50 b9 21 d5 06 b1
       6.441881e-06 -0.0013994081 -0.00019924836 -1.9620716e-09
0001d0 83 3d 2f 35 1b c8 25 ba bf 39 39 3b 0c 19 14 ba
       6.528209e-07 -0.00063240685 0.002826318 -0.0005649484
0001e0 6b b9 cc 3a 02 ef 43 b7 fd 5b 60 ba 59 dc c3 b6
       0.0015619224 -1.1678554e-05 -0.0008558629 -5.8371047e-06
0001f0 ed 01 0e 3a 09 0b 0b 39 10 6e 0f 3b 59 41 3e 3a
       0.0005417157 0.00013260184 0.002188567 0.00072576624
000200 3a 0c 82 bb d5 29 56 b9 2e 21 0d ba 6d 7f 3f b7
       -0.0039687427 -0.00020424214 -0.00053836673 -1.1414156e-05
000210 bc 30 96 ba 37 f7 9b 3a 92 be df 2f 60 04 f0 39
       -0.0011458616 0.0011899237 4.0698872e-10 0.00045779627
000220 1b e5 86 b9 08 4b d4 39 a8 0c ed 36 7a 2f e1 b9
       -0.0002572917 0.00040491694 7.064624e-06 -0.00042950717
000230 73 96 cb b8 c0 cb a2 36 ba 33 c2 b9 5e 61 19 36
       -9.707818e-05 4.851696e-06 -0.00037041103 2.2855452e-06
000240 9e c1 2d 36 71 9f a4 b5 43 19 94 ba 35 88 a9 3a
       2.589171e-06 -1.2265356e-06 -0.0011299032 0.001293427
000250 e9 50 a0 3a 47 ab 73 ba c7 a5 9f b9 45 14 15 3a
       0.0012231144 -0.00092952367 -0.00030450357 0.00056869193
000260 c5 cb 8b ba 0a 29 bc ba b0 9a a6 b6 ca 6b 5b ba
       -0.0010665586 -0.0014355492 -4.9651935e-06 -0.0008370249
000270 94 69 b2 39 26 bf 27 39 b4 7a 95 33 28 32 af 39
       0.00034029467 0.0001599757 6.960673e-08 0.0003341597
000280 8c 1b 1f 39 d8 65 3c ba 8c 10 1a ba e2 71 bf 38
       0.00015173684 -0.0007186807 -0.00058770995 9.128802e-05
000290 9e cc 70 bb 27 24 90 ba a4 6b aa 3a 8a f0 94 ba
       -0.0036743055 -0.0010997102 0.001300205 -0.001136319
0002a0 88 76 38 36 0a 9f e5 3a c0 f9 43 36 02 b1 66 ba
       2.748713e-06 0.0017518711 2.9202638e-06 -0.000880018
0002b0 25 40 b0 36 54 39 f4 37 57 3b 6e b9 dc a3 75 ba
       5.252676e-06 2.9113762e-05 -0.00022719555 -0.0009370425
0002c0 af ac a0 36 21 77 a3 b9 b1 e7 05 3a 9a 85 a2 b1
       4.7884746e-06 -0.0003117854 0.0005108072 -4.7300093e-09
0002d0 05 b1 0d b6 07 22 bf 39 37 57 e6 3a 3e 55 3a b9
       -2.1113676e-06 0.0003645571 0.00175736 -0.00017770097
0002e0 e6 d9 38 3b f1 69 2b 38 fd a9 49 3a ba 15 e4 36
       0.002820605 4.0868243e-05 0.0007692872 6.797459e-06
0002f0 75 be 59 b9 4c 80 f2 b9 d1 06 b9 3a 7d 79 99 39
       -0.00020765683 -0.00046253426 0.0014116411 0.0002927295
000300 f2 fc 0d bb 25 62 f8 ba ad 94 af 39 74 d8 eb 36
       -0.002166566 -0.0018950148 0.00033489373 7.028744e-06
000310 e3 35 7c bb 73 87 c7 ba d1 90 51 2f 8c cf 16 b9
       -0.0038484267 -0.0015222862 1.9059888e-10 -0.00014382432
000320 a8 f6 a1 3a 4f f0 de 3a bd 55 a0 b6 13 a4 fd b8
       0.0012356834 0.0017008873 -4.778353e-06 -0.00012094541
000330 bb 58 28 3b d5 d9 b5 37 ba f4 04 b9 b4 0e 61 37
       0.0025687653 2.1678317e-05 -0.00012679669 1.3414468e-05
000340 92 39 38 34 74 86 da 35 7a 83 88 3b bc c6 b5 3b
       1.715728e-07 1.6281397e-06 0.004166064 0.0055473726
000350 f5 b1 13 bb 8d 58 1b bb b7 98 da b9 9a c2 52 38
       -0.002253649 -0.0023703903 -0.00041693982 5.024914e-05
000360 b8 96 65 ba d0 20 ef 3a 5b 68 91 b6 6c 45 e3 b8
       -0.00087581156 0.0018244032 -4.3334853e-06 -0.00010837134
000370 47 76 eb b9 8d 02 a8 ba b4 85 d7 b4 8f 3d 10 3b
       -0.00044910816 -0.0012818143 -4.0144153e-07 0.0022009348
000380 b0 16 60 bb b8 e7 8f b9 e2 90 7c bb 97 29 04 bb
       -0.003419321 -0.0002744773 -0.0038538505 -0.002016639
000390 ea 49 27 bb 96 3e c8 ba e6 71 73 3a f9 01 e8 ba
       -0.0025526234 -0.0015277441 0.00092866865 -0.0017700783
0003a0 23 a3 44 b6 59 7f c1 39 14 70 2d 36 89 6d 7e 3a
       -2.9301234e-06 0.0003690671 2.5844247e-06 0.0009705653
0003b0 b9 50 4a 36 6c ba 1b 3b d0 c8 db ba 1e e7 54 bb
       3.0147332e-06 0.002376224 -0.0016768221 -0.003248639
0003c0 8e 59 17 36 e1 17 a5 ba 1c 67 6e ba e1 59 06 b1
       2.255288e-06 -0.0012595617 -0.0009094344 -1.9550657e-09
0003d0 92 f3 f7 b5 7a ee 83 bb f7 8b 92 3a c2 1f 59 bb
       -1.8473822e-06 -0.0040262314 0.0011180629 -0.0033130501
0003e0 25 33 5e 3b 2f 0b f5 39 18 19 ab 3a 6a ff ce b6
       0.0033904996 0.00046738374 0.0013053743 -6.1690125e-06
0003f0 df 1d 52 3a 7b ec 0c ba 03 dc 88 ba cb d6 ef 3a
       0.00080153154 -0.00053758145 -0.0010441545 0.0018298266

arith.constant10 f4 [33280]
000000 fd 20 48 ba 1e 5a 32 39 95 51 41 bb c5 69 b6 ba
       -0.000763431 0.00017008974 -0.002949809 -0.001391702
000010 3d 2e 04 3c b2 2a d6 b9 d5 19 99 bb 23 af 58 bb
       0.008067665 -0.0004084907 -0.004672269 -0.0033063374
000020 1c f0 d2 bb f5 fa 9d bb b9 af b0 b8 07 16 24 3a
       -0.0064373147 -0.004821176 -8.425065e-05 0.0006259386
000030 a0 5d 21 38 a7 af cd 3a 25 87 9c 3a aa 68 16 bb
       3.8472586e-05 0.0015692607 0.0011942132 -0.0022950568
000040 5d 54 83 3a cc 8b f4 3a 38 65 58 bb 2c c0 f6 bb
       0.0010019649 0.0018657385 -0.0033019315 -0.007530233
000050 ef e9 b5 ba ac 78 2d ba ed 1d a8 3b c6 67 96 ba
       -0.0013878922 -0.0006617408 0.0051305206 -0.0011475019
000060 3f 88 4a 3b 17 0c be 3b d5 45 01 bc 5c 57 cd 3a
       0.0030903963 0.005799781 -0.007890184 0.0015666294
000070 36 e7 92 ba 9c 23 59 3b 20 07 6e ba da 8b 0b ba
       -0.0011207822 0.0033132797 -0.0009080041 -0.00053232687
000080 83 8d bd 3a de 34 17 3b bc c6 47 3b 10 0b 4b bb
       0.001446173 0.0023072283 0.0030483445 -0.0030981936
000090 c3 58 2c bb ce ab 02 bb 4f 75 ff bb ff 58 9e 3b
       -0.0026298023 -0.001993883 -0.0077959667 0.0048323865
0000a0 f3 7e a2 3a fc 9b bf 3a 81 25 6f b8 b3 75 38 3b
       0.0012397453 0.001461863 -5.701697e-05 0.0028146326
0000b0 a6 6d 9b b8 27 fd 0f ba a7 b6 22 38 d6 a7 0b b8
       -7.4113996e-05 -0.000549274 3.8793918e-05 -3.3296492e-05
0000c0 9c 16 b8 bb d5 6a b5 3b 68 45 fc bb 37 96 31 bb
       -0.0056179296 0.005536417 -0.0076987036 -0.0027097592
0000d0 d2 c3 89 b9 76 88 fa 39 1b bf 89 3b 72 57 9f bb
       -0.00026276574 0.00047785387 0.0042036898 -0.004862719
0000e0 c3 5e 90 ba e0 2a 30 bb 8f 7d 84 bb 68 14 b4 bb
       -0.0011014569 -0.0026881024 -0.004043288 -0.0054955967
0000f0 89 63 2d bb c6 16 c2 ba 45 46 7d bb 72 07 91 bb
       -0.0026457033 -0.0014807812 -0.003864662 -0.0044259364
000100 40 64 36 bb b5 3c b3 b8 bb 5b 02 bb 4a d5 fd ba
       -0.002783075 -8.546693e-05 -0.0019891101 -0.0019365933
000110 31 49 34 bb 81 17 75 ba 2f bd 47 3b a7 3f 1b bb
       -0.0027509446 -0.00093495107 0.0030477752 -0.0023689063
000120 a8 b0 03 b9 41 9e 6b b9 c7 13 0f bb cc 42 e9 b8
       -0.00012558943 -0.000224703 -0.0021831857 -0.00011122748
000130 08 67 65 b8 93 82 fa ba ad e5 9b 38 3d c7 ef bb
       -5.469381e-05 -0.00191124 7.4337564e-05 -0.007317452
000140 d6 b1 09 bc 38 3e 0e 3b da 27 40 ba 35 88 54 bb
       -0.008404216 0.0021704566 -0.0007330157 -0.0032429819
000150 e9 0c 30 3a 32 6a 72 bb 8b fd 66 ba 33 c6 b7 bb
       0.0006715791 -0.0036989567 -0.00088115846 -0.005608344
000160 55 51 35 38 99 bd 28 3a 9c d0 a5 3a 78 9b 87 bb
       4.322951e-05 0.00064369437 0.0012650671 -0.0041384064
000170 19 ca c4 3b 25 90 57 bb 6b d8 6d b9 4a 84 b3 b9
       0.006005537 -0.0032892313 -0.00022682703 -0.00034240104
000180 3a 4c c7 3b 51 da a2 3b 09 40 35 bb 42 9b ee 3b
       0.006082085 0.004969873 -0.0027656576 0.007281692
000190 53 dc 97 bb 57 46 81 3a c0 eb a3 bb ee fe 0b bc
       -0.004634419 0.0009862882 -0.005002469 -0.008544667
0001a0 4f 54 36 3b 65 06 05 bb a3 23 81 ba 75 4d dc ba
       0.0027821248 -0.0020298 -0.000985254 -0.0016807752
0001b0 0f 63 97 b8 9e bd bf 39 2b cd bf b9 0e f0 3d b9
       -7.218692e-05 0.00036571635 -0.0003658322 -0.00018113872
0001c0 b1 56 9b ba ab e6 90 bb 60 90 69 bb 86 3f be 39
       -0.0011851398 -0.004422029 -0.0035639033 0.00036286953
0001d0 31 4a 61 39 14 99 fc ba 4f 38 1a b9 02 ef c4 ba
       0.0002148531 -0.0019271695 -0.00014707561 -0.0015024843
0001e0 64 c3 ed 3a 90 43 c3 3b 06 0a 66 bb 0f 8d 89 bb
       0.0018139896 0.005958982 -0.003510119 -0.0041977237
0001f0 d7 6a 0f bb 9c a1 96 bb 9d c9 88 bb 45 a2 32 bb
       -0.002188375 -0.004596902 -0.004174425 -0.0027257365
000200 e1 65 0f ba 6f 3a 3b 39 e3 40 01 bc 1b bd cc 3a
       -0.0005470198 0.00017855478 -0.007889005 0.0015620323
000210 a5 d3 2b 3c 51 c0 62 bb 9a f5 cc bb 50 4e be bb
       0.010487472 -0.0034599493 -0.006254864 -0.0058076754
000220 f7 d4 4d 3b 10 5f e7 bb 53 c7 a6 ba 50 5f da 39
       0.0031407455 -0.007060893 -0.0012724198 0.00041651214
000230 d0 d7 8d b7 db b3 08 bb c2 8a 34 38 50 f2 d9 ba
       -1.6909005e-05 -0.0020859155 4.3044573e-05 -0.0016628001
000240 6a c5 42 3b 16 65 3b bc 9e 92 30 bc 97 fe 9a bc
       0.0029719719 -0.011437675 -0.010777144 -0.018920226
000250 8e b1 35 ba e5 eb e5 ba d7 4d 5d 3b d9 62 e8 bb
       -0.000693106 -0.0017541616 0.003376832 -0.0070918617
000260 9e 00 7b bb f8 6d af 3b d8 ce 59 bb 56 b4 8e bb
       -0.0038299928 0.0053536855 -0.003323486 -0.004354994
000270 54 66 f9 bb 01 59 b0 bb a1 ce 39 bb 07 14 1c 3b
       -0.0076110754 -0.005381704 -0.002835192 0.0023815648
000280 bf 5f 12 3b 94 34 38 3b 66 bd d7 3a 39 78 7e bb
       0.00223349 0.002810751 0.0016459643 -0.0038828983
000290 e6 36 6e bc 76 6f e6 b9 21 bc f0 bb 1c ee b8 3b
       -0.014539456 -0.00043952063 -0.0073466455 0.005643619
0002a0 dc d5 d9 b8 20 5f 09 bc c4 cd 91 bb 8e d7 5a 3a
       -0.00010387201 -0.008384496 -0.004449578 0.000834816
0002b0 61 3e b6 39 73 f0 c8 3b af 93 f3 3a 93 5f 8e b9
       0.0003476022 0.0061321794 0.0018583442 -0.0002715556
0002c0 09 94 c8 bb d7 b1 94 ba cd fa 0a bc c8 68 14 bb
       -0.006121163 -0.0011344504 -0.008482647 -0.0022645462
0002d0 4c 25 d8 ba 49 a7 b0 36 70 b3 93 3b 52 44 59 bc
       -0.0016490608 5.2646833e-06 0.0045074746 -0.013260918
0002e0 66 19 4c bb 4c e5 5b bb 67 d8 e3 bb 59 9e 78 3b
       -0.0031143068 -0.003355342 -0.0069532874 0.003793618
0002f0 d2 13 ac bb 3f 18 5e bc 00 e1 50 3b 91 87 6e 3b
       -0.005251386 -0.013555585 0.0031872392 0.0036396722
000300 a2 e6 3a 3b eb d0 83 b9 e7 3f 83 bb 53 f2 28 bb
       0.0028518816 -0.00025141923 -0.0040054205 -0.0025779202
000310 b1 ea 81 bb 9f 6d f5 ba 0f 3c ff 3b 08 39 a4 3b
       -0.003964745 -0.0018724686 0.007789142 0.0050116815
000320 99 b1 3c 36 59 e8 a3 ba 73 4d 8d bb f9 b8 d7 38
       2.8117558e-06 -0.0012505158 -0.004312211 0.00010286453
000330 92 c1 01 38 cf 63 59 bb 2f c9 bf ba ff dd 5f 3c
       3.0936273e-05 -0.0033171063 -0.0014632101 0.013663768
000340 69 5b 0f 3b ee 9e d9 3a 6f 18 a8 ba 8a d6 f7 3a
       0.0021874553 0.0016603151 -0.0012824665 0.0018908542
000350 aa 67 57 bb 10 00 ab 3a c5 ea 3b 3b e3 55 00 39
       -0.0032868185 0.0013046283 0.002867387 0.00012239027
000360 9b 48 b6 3a cc 8d 88 3a d6 15 0a 39 7c d1 fd 39
       0.0013907136 0.0010418235 0.0001316884 0.00048411998
000370 df 0d de 3b 22 45 bc 3b c5 06 90 ba da 69 3b 3a
       0.006776556 0.005745546 -0.0010988346 0.0007149257
000380 e5 9a 67 3b 6d cf af 39 6c 07 02 bb be 11 eb bb
       0.0035340127 0.00033533145 -0.001984085 -0.007173746
000390 86 6f b5 ba 51 63 ac 3b 66 0e 2a 3c 92 64 07 3c
       -0.0013842441 0.005260863 0.010379409 0.008263724
0003a0 86 74 ed bb c5 d8 8b bb 7a ae 36 3b b7 fb f9 3b
       -0.0072465567 -0.0042677843 0.0027874992 0.0076288837
0003b0 94 62 57 3a e1 62 48 bb a4 0a ac 38 bd ac 7f b8
       0.00082162884 -0.0030576515 8.203581e-05 -6.0957613e-05
0003c0 7c 90 b2 3b 6b c7 35 3c db d8 2d 3b ab 51 e0 bb
       0.005449353 0.011094908 0.002652696 -0.006845673
0003d0 54 a2 2f ba 61 aa 5a ba 01 c7 40 3c ef e8 b1 3b
       -0.0006699909 -0.00083414285 0.011766196 0.005429379
0003e0 c5 b4 84 ba 91 ec 9c 3b 0a da e7 ba d2 c6 0b 3b
       -0.0010124674 0.004788943 -0.0017688882 0.0021328223
0003f0 f4 97 fc 3b 84 7c e5 bb ce 2f 57 b8 b9 51 3a bb
       0.007708544 -0.007003369 -5.1304516e-05 -0.0028430058

arith.constant11 f4 [1, 1, 64]
000000 43 99 49 3f ad ff 33 be b4 63 83 be 6f 29 d9 be
       0.78749484 -0.17578001 -0.25662005 -0.42414424
000010 2e d4 c8 3e 4e d9 cd bc 99 0d e1 bd fb 96 eb 3f
       0.3922438 -0.025128033 -0.10988922 1.840545
000020 83 07 a2 3e 1b 67 0a bf a5 a8 81 be ff f7 87 bc
       0.31646356 -0.54063576 -0.25323978 -0.016597746
000030 80 0d 38 bd 91 b1 64 3e b1 e0 e9 bd 4f 4f 1c 3e
       -0.04493475 0.22333361 -0.114198096 0.15264629
000040 0e 70 34 3e 0b 87 c5 3e e0 14 cf 3e 7e b2 41 3d
       0.1762087 0.38579592 0.40445614 0.047289364
000050 f8 97 42 bf b0 1a 6d bd e4 f8 df be 18 91 c6 3e
       -0.76013136 -0.05788678 -0.43744576 0.38782573
000060 f8 c2 6e 3f 5a 0d 9a be 9d bf 5f 3e 9e c1 9a be
       0.9326625 -0.3008831 0.21850438 -0.30225843
000070 d6 d7 54 bd f3 bb b4 be 37 54 a6 3d 2a f0 e8 bc
       -0.05196365 -0.35299644 0.081215315 -0.028434832
000080 a1 09 ae 3f 9d 38 25 be 5e 5e 59 be 27 89 be be
       1.3596689 -0.16134878 -0.21227404 -0.37214014
000090 a4 4c 43 3e 0f a0 15 3f a4 ca 21 be ff 00 22 bf
       0.19072205 0.58447355 -0.15799958 -0.6328277
0000a0 f0 eb 9b bd d7 14 06 3f de 30 3b bc 39 76 ed 3e
       -0.07613361 0.5237555 -0.011425225 0.4637926
0000b0 00 c4 22 be 0c b9 d4 bd bd b7 4b be 44 18 aa bd
       -0.1589508 -0.103868574 -0.1989431 -0.083054096
0000c0 1d 82 4b 3f de d5 be be ea a9 07 bf 53 b9 11 be
       0.7949541 -0.37272543 -0.52993643 -0.14230852
0000d0 ca f7 e1 bb e5 3a bb bc c0 e3 89 3f f0 38 0a bd
       -0.006895994 -0.022855232 1.0772629 -0.033745706
0000e0 94 af 25 be a8 45 af be 41 7c 22 b9 3d fa cf be
       -0.16180259 -0.3423283 -0.00015495812 -0.40620604
0000f0 5f c8 62 bf 9a 95 d6 bd ec 2f a7 be 0f 05 4d 3f
       -0.8858699 -0.10477753 -0.3265375 0.80085844

arith.constant12 f4 [64]
000000 fa 8e 3d 3f d2 c2 4f bf e5 87 95 3e 72 87 81 b9
       0.7404629 -0.8115665 0.29205242 -0.00024705712
000010 90 4d da bd 1a ba a9 3e 9a f4 8f 31 ac 00 34 be
       -0.10659325 0.33149797 4.1896557e-09 -0.17578381
000020 e1 63 1f be 72 6e 30 bf 7e b9 85 39 62 ac a1 bd
       -0.15565445 -0.68918526 0.0002550594 -0.078942075
000030 60 b4 b4 3e 55 6b 11 bb 08 cf d5 bd a0 52 f2 b8
       0.35293865 -0.002218922 -0.10439879 -0.00011554849
000040 b2 fc a6 38 4c 30 b5 b8 fb 24 fc 3e bf b7 1c 3f
       7.962565e-05 -8.6397486e-05 0.49246964 0.61217874
000050 c0 3b 49 3c 54 50 45 3e a6 e2 29 be f8 7b 71 3e
       0.012282312 0.19268924 -0.16590366 0.23582447
000060 3a 31 6c bd 0e 62 7f 3e 6e dd 43 b9 b4 2f a1 bc
       -0.057664134 0.24939749 -0.00018679138 -0.019676067
000070 c4 13 87 bd 38 76 89 be 5b 4d 41 36 10 29 ca 3c
       -0.06595567 -0.26848006 2.8804268e-06 0.024677783
000080 d1 9d c4 be 7d 06 9c 3e ad dc ea 3e 31 11 5f 3e
       -0.38401654 0.304737 0.45871487 0.21783902
000090 2a 3f f9 3e 91 0e b4 be a9 60 42 be 4c 4d a6 3d
       0.48681003 -0.35167363 -0.18982185 0.08120212
0000a0 13 20 a6 38 32 ff 2e 3e 02 54 ac 39 92 6d 95 3e
       7.921471e-05 0.17089537 0.00032868987 0.29185158
0000b0 80 c8 ae 38 32 02 a9 bd b2 8c 6c 3d de af 08 bf
       8.3343126e-05 -0.08252372 0.057751365 -0.5339335
0000c0 d4 20 4b 38 58 24 ec 3d 19 48 9b 3e 35 d8 88 b3
       4.8429545e-05 0.115303695 0.30328444 -6.372321e-08
0000d0 fa e5 32 b8 28 9a 2b 3e e3 29 96 3d 5e 38 f4 3c
       -4.265269e-05 0.16758025 0.07332208 0.029812034
0000e0 26 12 8c bd c2 33 76 3d 0c c7 03 bd 30 af 3e 39
       -0.06839399 0.060107954 -0.032172248 0.00018185074
0000f0 29 12 10 be d2 49 a8 3d 8e 75 0f be b3 78 11 be
       -0.14069428 0.08217205 -0.14009687 -0.142062

arith.constant13 f4 [64]
000000 bd 1f 90 40 df 53 7e 40 57 da 99 3f 03 1f b1 b9
       4.5038743 3.973869 1.2019757 -0.00033783176
000010 40 3c 08 40 21 f8 2b 40 5b 0e 93 b0 4c b4 87 40
       2.1286774 2.6870196 -1.0699738e-09 4.240759
000020 08 3a d1 40 24 c7 2f 40 54 21 03 b9 d3 30 a6 40
       6.538334 2.7465296 -0.00012505549 5.19346
000030 07 7f 77 40 d2 01 43 3c b5 fd e9 3f 0b 64 4a 3a
       3.8671281 0.011902289 1.828055 0.0007720596
000040 6a 4f d2 b8 17 a5 83 b8 cf 0f 45 40 d4 75 7c 40
       -0.00010028372 -6.277317e-05 3.0790899 3.9446917
000050 9e 99 a8 40 ac f6 4a 40 33 99 36 40 53 72 07 40
       5.268752 3.1713057 2.8531005 2.1163528
000060 dd 3b c4 40 e4 8e a4 40 19 7e cd 38 7c de b6 3f
       6.1323075 5.1424427 9.798649e-05 1.4286647
000070 49 91 02 40 9f 72 2a 40 7f 10 7e b7 7b e5 ba 40
       2.0401175 2.663246 -1.5143421e-05 5.8405128
000080 88 c3 ae 40 e8 77 17 40 2f 93 a1 40 59 c5 a7 40
       5.4613686 2.3666935 5.0492167 5.2428403
000090 73 33 2d 40 3a 23 84 40 27 ee 88 40 46 31 08 40
       2.7062652 4.1293 4.2790713 2.1280074
0000a0 b3 13 2f b8 ea 79 6f 40 ee 25 ac 39 51 1d 0d 40
       -4.1741598e-05 3.741816 0.00032834656 2.2049143
0000b0 cb a3 fe b8 0c 20 54 40 17 f9 88 40 12 21 b1 40
       -0.00012142173 3.314456 4.2804065 5.535287
0000c0 72 2f 92 38 f2 4f 52 40 a8 f9 8e 40 e9 a6 82 32
       6.97066e-05 3.2861295 4.4679756 1.5209894e-08
0000d0 e4 08 aa 34 ba 58 48 40 b4 f2 a9 40 cd 7f 9c 40
       3.1671436e-07 3.1304154 5.310877 4.8906007
0000e0 e4 5f 38 40 9b 05 b8 3f 36 e2 c1 3f a1 37 ea 3a
       2.8808527 1.4376711 1.5147159 0.0017869362
0000f0 d4 8d 92 3f 9c 8a 43 40 08 d6 6d 40 6e ab 15 40
       1.1449533 3.055335 3.7161884 2.3385882

arith.constant14 f4 [64]
000000 c3 bf e7 bf b0 0c 1d bb a6 21 56 bf d4 c8 7f bf
       -1.8105396 -0.0023963861 -0.83645093 -0.99915814
000010 84 9c c3 bd ae b6 2f be b4 65 44 bf 97 3a af bf
       -0.09551337 -0.1715953 -0.76717687 -1.3689755
000020 6d 4e be bf a0 de 11 bf 17 36 4f bf 24 93 f0 3b
       -1.4867684 -0.56980324 -0.8094191 0.0073417593
000030 05 d6 c9 ba 28 7a aa be d2 ed 3c bc 6f 17 d4 be
       -0.0015398866 -0.33296323 -0.01153131 -0.41424128
000040 8d c3 f5 bf 22 0d 4e bf d1 1f 80 bf 48 3e da be
       -1.9200302 -0.8048879 -1.000971 -0.42625642
000050 5c 2b 4f bf d5 63 71 be 12 34 31 bf f9 d5 65 be
       -0.80925536 -0.23573239 -0.6922008 -0.22444905
000060 94 76 e5 bf 8d 12 a9 be bf 34 10 bf 13 b6 87 bf
       -1.7926812 -0.33021966 -0.56330484 -1.060244
000070 d9 26 80 bf ae e8 2e bf d8 f5 52 bd 78 b5 f6 3b
       -1.0011855 -0.6832379 -0.051503986 0.007528957
000080 fb c2 bb bf 7c 48 e2 be e0 b3 a6 bf ca 1d e1 bf
       -1.4668878 -0.44195926 -1.3023643 -1.7587216
000090 7a 01 b9 bf b9 d3 e0 bf 9e 1c 83 bf 51 9c de bf
       -1.4453576 -1.7564613 -1.0243108 -1.7391454
0000a0 36 35 5a bf 62 02 81 bf 9a fe d0 be 59 e5 4e bf
       -0.85237443 -1.0078852 -0.40819246 -0.80818707
0000b0 70 ed 77 39 4c 4f 2d bf 03 4f 19 be 84 2a 34 3c
       0.00023644208 -0.6769912 -0.14971547 0.010996465
0000c0 da 72 3a bf 6c e3 4a bf 8a 7f 2e bf 78 1c 4d bf
       -0.728315 -0.7925327 -0.6816336 -0.80121565
0000d0 4a 0b 3a bd 76 64 2a bf 84 b3 af bf 37 64 78 be
       -0.045420922 -0.6655954 -1.3726659 -0.24256979
0000e0 62 28 6c bf 54 3a be be ba c6 8e be 09 b8 23 bf
       -0.9224912 -0.37153876 -0.2788599 -0.6395269
0000f0 ab 5d 77 bf 19 43 3a bf 4c fd 92 be 77 e3 73 be
       -0.966273 -0.7275863 -0.28708875 -0.2381724

arith.constant15 f4 [64]
000000 01 00 09 3d 0d d8 74 41 6a 33 81 3d 61 73 d9 3c
       0.03344727 15.302747 0.063086346 0.026544275
000010 95 84 e5 41 74 cf 80 3d e0 31 20 3d d3 79 8a 3d
       28.689737 0.062895685 0.039110065 0.067615174
000020 94 9c 19 3d 34 16 01 3e cf 0b a8 3d 17 21 83 40
       0.03750284 0.12606126 0.08205377 4.0977893
000030 44 2c 3b 41 0e 35 1c 3e c7 98 2c 41 41 d8 34 3d
       11.698307 0.15254614 10.787299 0.04415155
000040 b9 8c 84 3d c4 7d 9a 3d 1e 86 55 3d 19 fd b8 3d
       0.06472153 0.07543519 0.052129857 0.090326495
000050 44 b8 70 3d 74 c2 6e 3e c2 08 f4 3d be 93 9a 3d
       0.05876948 0.23316365 0.11915733 0.07547711
000060 72 01 4d 3d 12 6b 4c 3e f7 42 b4 3d 98 93 2d 3d
       0.050050206 0.19962719 0.08801835 0.042377084
000070 63 8f b3 3d a9 18 92 3d 36 a9 95 3d de 44 ea 3f
       0.08767583 0.0713361 0.07307665 1.8302267
000080 56 63 b5 3d ed 41 97 3d 48 8a 3e 3d 48 17 06 3d
       0.088568375 0.07385621 0.046518594 0.032737046
000090 62 80 8d 3d af 70 3b 3d f1 f4 cf 3d da 54 74 3d
       0.06909253 0.04576176 0.10154141 0.059651233
0000a0 d3 32 5f 3d 53 de 45 3d a6 8f d9 3d 65 ae 06 3e
       0.05449183 0.048307728 0.10623102 0.13152464
0000b0 dc 9d d9 3f cb 84 9d 3d ba e0 8b 3d bb a5 82 41
       1.70013 0.07691344 0.068299726 16.330923
0000c0 30 50 2b 3d 04 ea dd 3d 4d f0 27 3e c3 72 9a 3d
       0.04182452 0.108356506 0.16400261 0.0754142
0000d0 29 91 02 3e cc f2 61 3d 97 f2 d4 3d 56 2c 6d 3d
       0.12750687 0.05516319 0.10397833 0.05790361
0000e0 d0 09 a6 3d 23 f6 24 3e 71 37 6f 3d 38 db 03 3e
       0.0810734 0.16109519 0.058402482 0.12876594
0000f0 48 66 20 3d a9 9a 87 3d 1a 3d d0 3d 01 27 7c 3d
       0.039160043 0.06621296 0.10167904 0.061560635
